models/plate_ocr.onnx (onnx, 525758 bytes, 8 tensors)

cnn.0.weight f4 [32, 1, 3, 3]
0	0x3e3f6369	0.18690266
1	0x3dd15495	0.10221211
2	0xbea4cab7	-0.3218591
3	0x3e08a07c	0.1334247
4	0xbea416db	-0.32048687
5	0xbe0d0a9d	-0.1377358
6	0xbeaf9f72	-0.34301335
7	0x3dfa6133	0.122255705
8	0x3ea7f008	0.32800317
9	0xbee815d6	-0.4532916
10	0x3e5fa1d0	0.2183907
11	0x3e10579e	0.14095923
12	0xbd682bf0	-0.056682527
13	0xbdf64d52	-0.120264664
14	0x3e2ffd7b	0.17186539
15	0xbe8a4b84	-0.2701074
16	0x3e8e9e95	0.27855363
17	0x3e2077c4	0.15670687
18	0x3dac3d31	0.08410109
19	0x3e90ed9b	0.2830628
20	0x3d256913	0.04038341
21	0xbe250398	-0.16114652
22	0xbe0d5323	-0.13801245
23	0x3ec5894c	0.38581312
24	0xbe9886ba	-0.29790288
25	0xbe58e2cd	-0.21180268
26	0xbbe7d3f6	-0.0070748283
27	0xbf12542d	-0.5715969
28	0xbea83c23	-0.3285838
29	0xbf3636e7	-0.71177524
30	0x3edb89b2	0.4287849
31	0x3b85e4ac	0.0040860977
32	0x3ebdc4bb	0.37064156
33	0x3e622910	0.22085977
34	0x3e2f8418	0.17140234
35	0x3e9a74f3	0.3016735
36	0x3c1be211	0.009514348
37	0x3e7e2e7e	0.24822423
38	0xb92da244	-0.00016559014
39	0xbe98760c	-0.29777563
40	0xbda3a62a	-0.07990678
41	0xbe67d02a	-0.22638002
42	0x3e345283	0.176096
43	0x3ea9fd49	0.33201054
44	0x3e87f610	0.26554918
45	0x3f11d595	0.56966525
46	0x3f32cf10	0.698472
47	0x3e8238e1	0.2543402
48	0x3eaaef44	0.3338567
49	0xbea00168	-0.31251073
50	0xbf17268c	-0.5904319
51	0xbecbe799	-0.39825132
52	0xbf1d5f16	-0.61473215
53	0x3d8d1ce1	0.06890274
54	0x3daa07f1	0.08302296
55	0x3e4570bd	0.19281287
56	0x3d454be0	0.048168063
57	0x3e2a02b7	0.16602598
58	0x3ed0ced0	0.40782785
59	0xbe93ecd7	-0.28891632
60	0xbd656ca5	-0.056011815
61	0xbebf98d4	-0.37421286
62	0xbdb38b46	-0.08766799
63	0xbec4fd3d	-0.38474455
64	0xbe931f67	-0.28734896
65	0xbee4017e	-0.44532388
66	0x3eb70d17	0.35752174
67	0xbe4bd488	-0.19905293
68	0xbedb6708	-0.42852044
69	0x3ebaa49b	0.3645371
70	0x3f3fd740	0.7493782
71	0x3e8546f7	0.26030704
72	0x3ed4d9dc	0.41572464
73	0xbe576335	-0.21033938
74	0xbea55339	-0.32290056
75	0xbed320ba	-0.41235906
76	0xbe2218cd	-0.15829773
77	0x3e25b4e6	0.16182289
78	0xbe655989	-0.22397436
79	0x3edffe8d	0.43748894
80	0xbddbc34d	-0.1073061
81	0xbeb39de6	-0.35081404
82	0x3e90febd	0.2831935
83	0x3e22f5e8	0.15914118
84	0x3d6d3c4e	0.05791884
85	0x3dad0b10	0.08449376
86	0x3f02bf96	0.51073587
87	0xbef3d101	-0.47620395
88	0xbe9d9455	-0.3077723
89	0x3dc20e2d	0.0947536
90	0x3f150f30	0.582263
91	0xbe0bbd6e	-0.1364648
92	0xbe746d80	-0.23869896
93	0x3f4a1e6d	0.78952676
94	0xbea4d34e	-0.32192463
95	0xbf0208a8	-0.5079446
96	0x3f23e7d5	0.6402562
97	0xbec81fc4	-0.39086735
98	0xbeb85aca	-0.36006767
99	0xbe29f08f	-0.16595672
100	0xbd062bca	-0.032756604
101	0x3ea555fc	0.32292163
102	0x3e1e581d	0.154633
103	0xbdd328ee	-0.10310541
104	0x3c787607	0.015164859
105	0x3de50504	0.11182597
106	0x3d66d5e0	0.05635631
107	0xbe30b564	-0.17256695
108	0xbed81f1e	-0.4221124
109	0xbe17d695	-0.1482795
110	0x3f424a3e	0.75894535
111	0xbdc41a87	-0.09575372
112	0x3d845adc	0.064626426
113	0xbdfc4b9b	-0.12319108
114	0xbe60f4fe	-0.21968457
115	0xbe1f5fd2	-0.15563896
116	0x3e7d80c2	0.24756148
117	0xbd522760	-0.051307082
118	0x3d595988	0.0530639
119	0x3c4fb047	0.012676305
120	0x3de44bdf	0.11147284
121	0xbd9ac2e8	-0.07556707
122	0x3d33b4f0	0.043873727
123	0xbc6c2e02	-0.014415266
124	0xbd885750	-0.066572785
125	0x3b7b5862	0.003835224
126	0xbf00c2e9	-0.5029741
127	0xbea1adac	-0.31577814
128	0x3ed9e960	0.42560863
129	0xbeee0e48	-0.4649527
130	0x3ea527c7	0.3225691
131	0x3e98c967	0.29841158
132	0xbed5e8c0	-0.41779137
133	0x3ed7dc31	0.4216018
134	0x3e74e16e	0.2391412
135	0xbe0e230e	-0.1388056
136	0xbe8e481d	-0.27789393
137	0xbeb784c9	-0.35843495
138	0xbd1004fe	-0.03516101
139	0xbccbfcd9	-0.02490084
140	0x3e26daa7	0.16294347
141	0xbe951d6d	-0.29124013
142	0x3eeb4ef4	0.45958674
143	0xbdd5f2f8	-0.10446733
144	0x3e8795c0	0.26481438
145	0x3e255a5e	0.16147754
146	0xbbe4c659	-0.0069816527
147	0x3efaf00b	0.49011263
148	0x3e8dba06	0.27680987
149	0xbf2a757b	-0.6658551
150	0x3e489f94	0.19592124
151	0xbe84d3b5	-0.2594277
152	0xbef6bda2	-0.48191553
153	0xbe223aee	-0.15842792
154	0x3e376b68	0.17912066
155	0xbe1ff70d	-0.15621586
156	0x3e3ed51e	0.18635985
157	0xbdabd25d	-0.08389733
158	0xbb96ae5d	-0.0045984224
159	0xbdea5d8a	-0.114436224
160	0x3d9e7ce0	0.07738662
161	0xbd57663c	-0.052587733
162	0xbdd114bb	-0.10209032
163	0xbeaac56d	-0.3335375
164	0x3f05bd89	0.5224233
165	0xbdeaa31f	-0.11456894
166	0xbe6e69f3	-0.23282604
167	0x3f279f94	0.6547787
168	0x3ded99ec	0.11601624
169	0xbee70fbe	-0.45129198
170	0xbd873d6d	-0.06603513
171	0x3e226529	0.15858902
172	0x3e49dba3	0.19712691
173	0xbe7b43ce	-0.24537584
174	0x3da80bed	0.082054
175	0x3caf9bd0	0.021436602
176	0xbec2f47d	-0.38077155
177	0x3ed462ea	0.41481715
178	0x3ec53a24	0.3852092
179	0xbf0043b3	-0.501033
180	0x3e39b2a2	0.1813455
181	0x3e954cd3	0.29160175
182	0x3e347099	0.17621078
183	0xbdf28990	-0.11842644
184	0x3e094f28	0.13409102
185	0x3e59b9fd	0.21262355
186	0xbe0f207b	-0.13977234
187	0xbe85c853	-0.26129398
188	0xbe4bd371	-0.19904877
189	0x3d76c14c	0.060242936
190	0xbe2d6e05	-0.169365
191	0xbe3e8175	-0.18604071
192	0x3e679a39	0.22617425
193	0x3ed3a4b3	0.41336593
194	0x3b5af7e8	0.0033411924
195	0xbe972876	-0.29523057
196	0xbda6abd7	-0.081382446
197	0xbe2e2364	-0.17005688
198	0xbc40665a	-0.0117431525
199	0x3ddec650	0.10877669
200	0xbe8df0b8	-0.27722716
201	0xbe866bb5	-0.2625405
202	0x3e860174	0.26172984
203	0x3e81ad17	0.2532737
204	0xbd85769d	-0.06516764
205	0xbe583fb2	-0.21118048
206	0xbb6f6aeb	-0.0036532234
207	0xbe73ea9d	-0.23819967
208	0xbdfde326	-0.12396841
209	0x3dd596d2	0.10429157
210	0x3e3a1090	0.1817038
211	0x3d1a9fce	0.037750058
212	0xbebe607a	-0.3718298
213	0xbe21c375	-0.15797217
214	0x3c109c20	0.008826286
215	0x3ece3ad2	0.4027925
216	0x3e549c21	0.20762683
217	0x3edd76c1	0.43254665
218	0x3f49e490	0.78864384
219	0xbeb1bf14	-0.34716094
220	0xbe3556d4	-0.17708904
221	0x3edc46fa	0.430229
222	0xbedaed3c	-0.4275912
223	0xbeaa9827	-0.33319208
224	0xbf13105d	-0.57446843
225	0x3e7b86f5	0.24563201
226	0x3e85bee4	0.261222
227	0x3d45c432	0.04828281
228	0xbf13ab70	-0.5768347
229	0xbf1d728d	-0.61502916
230	0xbf06667a	-0.52500117
231	0x3e8c462a	0.2739728
232	0x3ea5fae6	0.32417983
233	0x3ee77d6e	0.45212883
234	0x3e98f7a9	0.2987645
235	0x3e0187b3	0.12649421
236	0x3b0d5961	0.0021568167
237	0xbe186641	-0.14882757
238	0xbe7e8244	-0.2485438
239	0xbe26e54b	-0.16298406
240	0x3e578d01	0.21049882
241	0xbe4f00ff	-0.20215224
242	0x3e4c3b23	0.19944434
243	0xbe5ba392	-0.21449116
244	0xbdc02826	-0.09382658
245	0x3c775793	0.015096563
246	0xbe20363f	-0.15645693
247	0x3caeba8f	0.021329192
248	0xbe29f1b8	-0.16596115
249	0x3f0ae84d	0.5426071
250	0x3e3e2ce9	0.1857182
251	0xbe26b253	-0.16278963
252	0x3ce45a32	0.02787504
253	0xbe80b450	-0.25137568
254	0xbde5c7a5	-0.1121972
255	0xbef21ce4	-0.47287667

cnn.0.bias f4 [32]
0	0xbea45dd3	-0.32102832
1	0xbec7d41b	-0.3902901
2	0xbe72bedb	-0.23705618
3	0xbcc4a6d0	-0.024005324
4	0xbf085f27	-0.5327019
5	0x3cbef21c	0.023308806
6	0xbd964eba	-0.07339235
7	0x3c21634f	0.009850337
8	0xbee64211	-0.4497228
9	0xbd01ba83	-0.031672012
10	0x3d9e132e	0.07718502
11	0xbf07fa69	-0.5311647
12	0xbc9ce3ed	-0.019151652
13	0xbecbd0fd	-0.39807883
14	0x3d417c10	0.047237456
15	0xbf049e70	-0.51804256
16	0xbe9a0f8d	-0.3008999
17	0xbeeabe93	-0.45848522
18	0x3cf8e9df	0.030384956
19	0x3b9f5afb	0.0048631406
20	0xbeb5dead	-0.3552145
21	0xbe9a048a	-0.30081588
22	0xbea6eb1d	-0.32601252
23	0xbeb67ed9	-0.35643652
24	0x3d0f6d9a	0.035016634
25	0xbd561f69	-0.05227605
26	0xbea77f2d	-0.32714215
27	0xbebcbdcb	-0.3686355
28	0xbde395ee	-0.11112581
29	0xbe9b1d70	-0.30295897
30	0xbe6bb032	-0.23016432
31	0xbe8bedb2	-0.27329785

cnn.3.weight f4 [64, 32, 3, 3]
0	0xbd7842e9	-0.060610685
1	0xbd14481d	-0.036201585
2	0x3ca7222f	0.020402042
3	0x3c2b7487	0.010464794
4	0xbd76b9ba	-0.060235716
5	0xbd8bfd2f	-0.068354
6	0xbd78a48c	-0.0607038
7	0xbda29eae	-0.07940422
8	0xbd87c74d	-0.066298105
9	0xbcb05d3c	-0.021528833
10	0x3d078f2a	0.033095516
11	0x3b71682a	0.0036835768
12	0xbd537754	-0.051627472
13	0xbd5c1eaf	-0.0537402
14	0x3cb299c7	0.021801842
15	0xbd4d225b	-0.050081592
16	0xbc749c81	-0.014929892
17	0x3cb188d2	0.021671686
18	0xbd0b1c16	-0.03396233
19	0xbc639585	-0.013890629
20	0xbc43587c	-0.011922952
21	0xbca4295d	-0.020039255
22	0xbd129d3f	-0.035794493
23	0xbd6ecc53	-0.058300328
24	0xbd890152	-0.06689705
25	0xbd4cbdb5	-0.049985606
26	0x3d1ca468	0.038242728
27	0xbd113db4	-0.035459235
28	0xbd25ce0a	-0.040479697
29	0xbb95254a	-0.0045515643
30	0x3c192be3	0.009348842
31	0x3c2768ed	0.010217887
32	0x3cb4ddc5	0.022078404
33	0x3cd8a3a8	0.026445225
34	0xbd845198	-0.06460875
35	0xba60b6ad	-0.00085721427
36	0x3ce873f9	0.028375613
37	0xbc4f8990	-0.012667075
38	0xbd28d115	-0.04121502
39	0x3d499b7d	0.04922055
40	0xbc87b6c8	-0.01656665
41	0xbd266eaf	-0.0406329
42	0xbd709a46	-0.058740877
43	0x3c1884b7	0.009308985
44	0x3c9f680c	0.019458793
45	0x3c162f4a	0.009166548
46	0xbc8ccd42	-0.017187718
47	0xbd94ab68	-0.07259256
48	0xbd93c335	-0.07214967
49	0xbc705337	-0.014668277
50	0x3d41b7a3	0.04729427
51	0x3c440b54	0.011965591
52	0xbd688ec4	-0.056776777
53	0xbd0485a6	-0.03235402
54	0xbd6f8abd	-0.05848192
55	0xbd5ca000	-0.053863525
56	0xbc7c80b7	-0.015411547
57	0x3c8ba5da	0.017046858
58	0x3d182174	0.03714128
59	0xbd7a3321	-0.061083917
60	0x3c92899f	0.017887888
61	0xbd7db8d2	-0.061943837
62	0xbac650fd	-0.0015130338
63	0x3d3adb28	0.04561916
64	0xbca32cb8	-0.019918784
65	0x3d37461c	0.044744596
66	0xbd5e75ea	-0.05431167
67	0xbd2271b2	-0.03965921
68	0x3c3a67e2	0.011377307
69	0xbc9acdfe	-0.018897053
70	0xbc928995	-0.01788787
71	0xbcfa01a4	-0.03051836
72	0x3d0e19d0	0.034692585
73	0x3cba8f4a	0.022773404
74	0xbbedb6d1	-0.0072544594
75	0xbd20bb08	-0.039240867
76	0xbd5fd808	-0.054649383
77	0xbc35ec5c	-0.011103716
78	0x3c300e0c	0.010745537
79	0xbd0aa3ea	-0.033847727
80	0xbcb99a2f	-0.022656528
81	0x3cb170f2	0.021660302
82	0xbc71d103	-0.014759305
83	0xbb82f274	-0.003996188
84	0xbd047750	-0.032340348
85	0xbd89dbd4	-0.06731382
86	0xbd7f0318	-0.06225881
87	0xbd512a88	-0.05106595
88	0xbd47e076	-0.048798047
89	0xbb4038e9	-0.0029330796
90	0xbd0ac091	-0.033875052
91	0xbd51646a	-0.051121153
92	0x3d0ffdf4	0.035154298
93	0x3a6fea1e	0.00091520126
94	0x3c9e704b	0.019340655
95	0xbd570927	-0.052498963
96	0xbd2cdcc3	-0.042202722
97	0x3afa09c0	0.0019076392
98	0xbd731f82	-0.05935622
99	0xbd365bf7	-0.0445213
100	0xbc12076c	-0.008912902
101	0xbce73d45	-0.028227458
102	0xbd4e4746	-0.05036094
103	0x3ce84776	0.028354388
104	0x3d27528d	0.04085021
105	0x3b0ba535	0.0021308188
106	0xbc8a7488	-0.01690127
107	0xbd7d10e8	-0.0617837
108	0xbd285416	-0.041095816
109	0xbbcce72c	-0.006253144
110	0x3cb109b8	0.02161108
111	0xbcdd460a	-0.027010936
112	0xbd197eda	-0.03747449
113	0x3ceb8fef	0.028755156
114	0xbd8eb8f7	-0.06968873
115	0x3c88c190	0.01669386
116	0xbd3c960e	-0.04604154
117	0xbba72c2e	-0.005101702
118	0xbc91eddc	-0.017813616
119	0x3923337e	0.00015564074
120	0xbcc4700e	-0.023979213
121	0x3d14400d	0.036193896
122	0xbc049c96	-0.008093974
123	0x3d1fe779	0.03903911
124	0x3d4bef2e	0.049788646
125	0xbd118c8b	-0.035534423
126	0xbd66a4b4	-0.056309417
127	0x3cee703e	0.029106256
128	0x3d2d2cf2	0.04227919
129	0xbd684343	-0.05670477
130	0xbc884a2d	-0.016636932
131	0xbd9a05f6	-0.07520668
132	0xbd858bbf	-0.06520795
133	0x3b79f780	0.0038141906
134	0xbb064020	-0.0020484999
135	0x3bd5064a	0.006500994
136	0xbcb35989	-0.02189328
137	0x3d449756	0.047995888
138	0x3c6a2de6	0.01429317
139	0xbd2c9832	-0.042137332
140	0xbc867066	-0.016411018
141	0x3be276ba	0.006911126
142	0x3c638880	0.013887525
143	0xbd459cd3	-0.048245262
144	0x3c758ffe	0.014987944
145	0xbd250e1d	-0.040296663
146	0xbd8faa5e	-0.07014917
147	0xbd1f83e3	-0.038944136
148	0x3d4d1c86	0.05007603
149	0x3d35188c	0.044212863
150	0x3d4c873d	0.04993366
151	0x3d33f7d8	0.043937534
152	0x3d1f24a8	0.038853317
153	0xbcce7818	-0.02520375
154	0xbd4adedf	-0.049528953
155	0x3cad9986	0.02119137
156	0xbd44f103	-0.04808141
157	0xbd7d9711	-0.061911646
158	0xbd20ee1b	-0.039289575
159	0xbbd151fd	-0.0063879476
160	0x3c64276a	0.013925413
161	0xbd323211	-0.04350478
162	0xbd581feb	-0.052764814
163	0xbc4eb3a5	-0.012616073
164	0xbd26494d	-0.04059725
165	0xbd5c37cb	-0.053764146
166	0x3c90feb4	0.017699577
167	0xbc929453	-0.017892992
168	0x3cfc9210	0.030831367
169	0x3d07604c	0.03305082
170	0xbbcc7d10	-0.0062404945
171	0x3bd0584d	0.0063581825
172	0xbc63d006	-0.013904577
173	0xbcb0a0a4	-0.021560974
174	0xbcc75b75	-0.024335602
175	0xbcbbaa03	-0.022908216
176	0x3a1e3c37	0.00060361944
177	0x3d21d679	0.039511178
178	0xbccc7fa1	-0.024963202
179	0xbd19cc0f	-0.03754812
180	0xbcab1e4d	-0.020888472
181	0xbd0fba61	-0.035089854
182	0x3b6b946d	0.0035946623
183	0x3d18bd2c	0.037289783
184	0x3d22a4aa	0.039707817
185	0x3ca6e33e	0.02037203
186	0xbd45619d	-0.048188794
187	0xbccd05c5	-0.025027165
188	0xbc9dfe8d	-0.019286418
189	0xbc8c4490	-0.017122537
190	0xbc510638	-0.01275783
191	0xbd9795a8	-0.074015915
192	0x3c3520f2	0.011055218
193	0xbd853a8c	-0.065053076
194	0xbd6d7c51	-0.057979885
195	0xbd88a742	-0.06672527
196	0x3d135c9c	0.03597699
197	0xbd9094cf	-0.07059633
198	0x3cbe2d3e	0.023214933
199	0xbce04003	-0.027374273
200	0xbd03163c	-0.032003626
201	0x3c7e21f4	0.015511025
202	0xbd043fe7	-0.032287505
203	0x3c77436d	0.015091759
204	0x3caa2420	0.020769179
205	0xbd96ca45	-0.073627986
206	0xbabdd206	-0.0014482148
207	0x3ac81a70	0.0015266668
208	0x3b9c11ac	0.004762849
209	0x3ba5b621	0.005057112
210	0x3baa71d0	0.005201556
211	0xbd1d2ed7	-0.038374748
212	0xbcfd3a45	-0.030911574
213	0x3d3a8c5f	0.045544025
214	0x3cf8b9fe	0.030362125
215	0xbc4b2620	-0.012399226
216	0xbd8fa944	-0.07014707
217	0xbcc2d13e	-0.023781415
218	0xbd85c3e7	-0.06531506
219	0x3cf9516e	0.030434337
220	0xbd5bf088	-0.053696185
221	0xbc3bd925	-0.0114653455
222	0xbd1c2bbb	-0.038127642
223	0xbc6f7174	-0.014614452
224	0x3cf39a22	0.029736582
225	0x3a6e5339	0.00090913806
226	0x3c762590	0.015023604
227	0x3cc15715	0.023601094
228	0x3d17ce9d	0.037062276
229	0xbce4b132	-0.027916525
230	0xbc99da90	-0.018780977
231	0x3c89562a	0.016764719
232	0xbc3110d1	-0.010807232
233	0x3d052524	0.032506123
234	0xbd1496f8	-0.036276788
235	0xbd8ab9d2	-0.06773724
236	0x39fb5cdb	0.00047943633
237	0xbc803fa5	-0.015655348
238	0x3ab176fc	0.0013539488
239	0x3d0aa19e	0.033845536
240	0x3c8bf0bf	0.01708257
241	0x3d0b5ab9	0.034022067
242	0xbc8c1aeb	-0.01710268
243	0xbd7c41bc	-0.061586127
244	0xbd80ba96	-0.062855884
245	0xbd67b8b4	-0.05657263
246	0xbd8eef10	-0.06979191
247	0xbd4aa407	-0.049472835
248	0xbd99d868	-0.07511979
249	0xbd712fd4	-0.058883503
250	0xbd2e874f	-0.04260951
251	0xbd95bac7	-0.073110156
252	0xbd36492a	-0.04450337
253	0x3c553868	0.013013937
254	0x3cd5f90c	0.026119731
255	0xbd0705d4	-0.032964543

cnn.3.bias f4 [64]
0	0xbdb01763	-0.08598211
1	0x3d7d7350	0.06187755
2	0x3e2d6f59	0.16937007
3	0x3dac882d	0.08424411
4	0x3d073fd1	0.033019844
5	0xbc5f7a14	-0.013639946
6	0x3dc05bac	0.09392485
7	0xbbf57be3	-0.007491575
8	0xbca1762f	-0.019709675
9	0x3dbe4289	0.09290034
10	0x3eb53c30	0.35397482
11	0x3e1b24be	0.15150735
12	0x3e48439c	0.19557041
13	0x3e428afe	0.18998334
14	0x3df2315b	0.1182582
15	0x3d11dbdf	0.035610076
16	0xbd25b57e	-0.040456288
17	0x3d34ed97	0.044171896
18	0x3e00e03b	0.12585537
19	0x3da1e249	0.079044886
20	0xbd0702cb	-0.032961648
21	0xbd962792	-0.07331766
22	0x3e82ed61	0.2557173
23	0x3e445126	0.1917158
24	0xbe178d66	-0.14800033
25	0xbe500f77	-0.203184
26	0x3e862f9f	0.26208207
27	0xbd1f067d	-0.038824547
28	0x3d1ca775	0.038245637
29	0x3e214dd0	0.1575234
30	0x3e6a5808	0.22885144
31	0x3af9b5a7	0.0019051329
32	0xbcfc6837	-0.030811412
33	0xbdb8c972	-0.09022798
34	0x3e65126c	0.22370309
35	0xbd6de267	-0.058077242
36	0x3e529e74	0.20568258
37	0xbd3bf2e8	-0.04588595
38	0xbe80c07e	-0.2514686
39	0x3e6f1929	0.23349442
40	0xbcf825cf	-0.030291466
41	0x3e2a4e10	0.16631341
42	0x3d0f1b2b	0.03493802
43	0x3d18bab7	0.03728744
44	0xbaad1d40	-0.001320757
45	0xbe8569bd	-0.26057234
46	0x3ea148f3	0.31500968
47	0x3e1cfb7d	0.1533031
48	0x3d581a35	0.052759368
49	0xbe6fb807	-0.23410045
50	0x3e97ee86	0.29674166
51	0xbd3a18eb	-0.04543392
52	0x3df60f58	0.12014645
53	0xbe2730e2	-0.16327241
54	0x3e58cca7	0.21171819
55	0x3e702717	0.23452412
56	0x3dc6957a	0.09696479
57	0x3dfd5a76	0.1237077
58	0x3d0990cb	0.03358535
59	0x3e1e82f4	0.15479642
60	0x3e665d30	0.22496486
61	0xbde8b030	-0.1136173
62	0x3df8b7c9	0.12144429
63	0x3e34139a	0.17585602

cnn.6.weight f4 [128, 64, 3, 3]
0	0x3d23a1fb	0.0399494
1	0xbb4af020	-0.003096588
2	0xbcc14348	-0.023591653
3	0xbcddd328	-0.027078226
4	0xbc3302a6	-0.010925924
5	0x3c94af23	0.018149918
6	0x3c92e6bd	0.01793229
7	0x3b0e3b4a	0.002170282
8	0xbd41992b	-0.047265213
9	0xbf43ed9a	-0.76534426
10	0x3e8f38fc	0.27973163
11	0xbe9550e5	-0.2916328
12	0xbf3e123f	-0.7424659
13	0x3dcfead6	0.10152213
14	0xbe93a48e	-0.28836483
15	0xbde0826b	-0.10962375
16	0x3e56997c	0.20956987
17	0x3e1d6568	0.15370715
18	0x3e148eb4	0.14507562
19	0x3d5ed1f1	0.054399434
20	0x3c96ab66	0.018392276
21	0x3d726128	0.059174687
22	0xbde8a1ef	-0.113590114
23	0xbdfaaba8	-0.12239772
24	0x3e78dc29	0.24302734
25	0xbd0a6d78	-0.033795804
26	0xbedfea4c	-0.43733442
27	0xbb63722c	-0.0034705503
28	0xbddc47ba	-0.10755868
29	0xbdec3fa8	-0.11535579
30	0xbe973081	-0.29529193
31	0xbe196b11	-0.14982249
32	0xbe544c2d	-0.20732184
33	0x3dad33de	0.084571585
34	0x3e1453f0	0.14485145
35	0x3d36832e	0.044558696
36	0xbe34d3a3	-0.17658858
37	0x3f112bf5	0.567077
38	0xbddf926e	-0.10916601
39	0x3c63242d	0.013863605
40	0x3ed3d184	0.41370785
41	0xbebed555	-0.37272134
42	0x3d705fa1	0.05868495
43	0x3dcf6dfa	0.10128398
44	0x3d4c5379	0.049884293
45	0xbd069384	-0.032855526
46	0xbd01d953	-0.031701397
47	0x3e2e7858	0.17038095
48	0xbe1008c3	-0.14065842
49	0xbf3aad67	-0.7292084
50	0xbee05d01	-0.43820956
51	0x3e41d5fd	0.18929286
52	0xbe9ce053	-0.30639896
53	0xbd2371e2	-0.03990353
54	0x3e471d64	0.19444805
55	0x3e90816d	0.28223744
56	0x3e7522cf	0.2393906
57	0x3c8afcdc	0.016966276
58	0xbc790565	-0.01519904
59	0x3d20b090	0.039230883
60	0x3dad3faa	0.084594086
61	0x3d2849ad	0.041085888
62	0xbc0c4f50	-0.008563831
63	0x3e4035cc	0.18770522
64	0x3e67b03f	0.22625826
65	0x3e44f619	0.19234504
66	0x3d7acafa	0.06122873
67	0x3daf6dfb	0.08565899
68	0x3d8d7f84	0.06909087
69	0x3dab17e1	0.08354164
70	0x3d50d601	0.05098534
71	0x3d3123ab	0.043246906
72	0xbe6d1946	-0.23154172
73	0xbe4e50a5	-0.20147951
74	0xbdf113cb	-0.11771353
75	0xbe8de7df	-0.27715966
76	0xbf1cf413	-0.6130993
77	0xbedbffd2	-0.42968613
78	0x3d9d62bf	0.0768485
79	0xbe5f8a72	-0.21830156
80	0xbe8c77d0	-0.2743516
81	0xbe31a2f0	-0.17347312
82	0xbe04e1a9	-0.12976708
83	0xbdba3012	-0.090912
84	0xbec62569	-0.38700417
85	0xbcbf3223	-0.023339337
86	0xbe84b2f2	-0.25917774
87	0xbdc812f9	-0.09769244
88	0xbc8e815b	-0.017395666
89	0xbdea6d7d	-0.114466645
90	0x3d464727	0.0484077
91	0xbe442c88	-0.19157612
92	0x3e16c81e	0.14724776
93	0x3e3f1802	0.18661502
94	0xbedbbd6d	-0.42917958
95	0xbe237f56	-0.15966544
96	0x3cbdd90e	0.023174789
97	0xbe223e36	-0.15844044
98	0x3e2ebbbe	0.17063805
99	0xbef6f9b1	-0.48237374
100	0xbdc1a392	-0.09455027
101	0xbd8c3c9c	-0.06847498
102	0xbed0b62e	-0.40763992
103	0xbe83eba2	-0.2576571
104	0xbe4bc1a0	-0.19898081
105	0x3dcf41ec	0.101199955
106	0xbe034367	-0.1281868
107	0x3d01fbb0	0.03173417
108	0xbd8f3682	-0.069928184
109	0x3e856af8	0.26058173
110	0xbd2ab68c	-0.041677997
111	0xbdd44107	-0.103639655
112	0x3da8c4e4	0.08240679
113	0x3e62eabc	0.22159857
114	0x3e807890	0.25091982
115	0x3ea39e5b	0.31956753
116	0x3d406f46	0.04698112
117	0xbe88ae8c	-0.2669567
118	0x3e2f9e73	0.17150287
119	0xbd317360	-0.04332292
120	0xbe9d7c2f	-0.30758807
121	0xbe089e4d	-0.13341637
122	0xbed45138	-0.41468215
123	0x3e0383fb	0.12843315
124	0x3df3f459	0.1191184
125	0xbe4410b4	-0.19146997
126	0xbe7ebfc1	-0.24877836
127	0x3e84e32a	0.25954562
128	0x3e83ce57	0.25743362
129	0xbe89ea25	-0.2693645
130	0x3e43d850	0.19125485
131	0x3ead3700	0.33831024
132	0x3bfc4bbe	0.007699459
133	0xbdaac5b8	-0.08338493
134	0x3ebcda63	0.36885366
135	0xbec14744	-0.37749684
136	0x3da3f95d	0.08006547
137	0x3e08d499	0.1336235
138	0x3ee37617	0.44426033
139	0x3ed2efd3	0.41198596
140	0x3f0b9aba	0.5453297
141	0x3e985d7e	0.2975883
142	0x3eaf16ac	0.34196985
143	0xbddc8b32	-0.10768737
144	0x3e130232	0.14356306
145	0xbeb1d6ed	-0.34734288
146	0xbefaf1b9	-0.49012545
147	0x3ded189f	0.11576962
148	0xbe4f0f43	-0.20220666
149	0x3dd1435d	0.10217927
150	0xbd85b694	-0.06528965
151	0xbd1976bf	-0.03746676
152	0x3de02c56	0.109459564
153	0xbe1058bd	-0.14096351
154	0x3e3ab2a5	0.1823221
155	0x3e653f49	0.22387423
156	0xbd0b53f3	-0.034015607
157	0x3e98914e	0.2979836
158	0x3ea5777e	0.32317728
159	0x3eaf0143	0.3418065
160	0x3e337133	0.17523651
161	0xbecd2328	-0.40065885
162	0x3db38339	0.08765263
163	0x3bfcf5db	0.007719738
164	0x3d726b8a	0.05918459
165	0xbc6f7588	-0.014615424
166	0xbe573042	-0.21014503
167	0xbeb0f39a	-0.34560853
168	0x3e23c229	0.15992035
169	0x3eaa2714	0.3323294
170	0xbe0f49e9	-0.13993038
171	0x3b8e8af9	0.004350063
172	0xbd99e413	-0.07514205
173	0x3e9ab714	0.30217803
174	0xbd481ee8	-0.0488576
175	0xbe2c2df7	-0.16814409
176	0x3e5c15bb	0.21492665
177	0x3e35ef38	0.17767036
178	0x3e327c3d	0.17430206
179	0x3e5f1c79	0.21788205
180	0x3c53346a	0.012890914
181	0x3c8efc96	0.017454427
182	0x3d0ace9e	0.03388845
183	0x3c653735	0.013990213
184	0xbca8bec7	-0.020598782
185	0xbc2cac41	-0.010539115
186	0xbc660311	-0.014038817
187	0xbcaf0221	-0.02136332
188	0xbb611728	-0.0034346078
189	0x3cf607a3	0.030032938
190	0x3c83c527	0.01608522
191	0x38a3a9d4	7.8040786e-05
192	0x3d03e05e	0.032196395
193	0xbc600085	-0.013671999
194	0x3cd8430e	0.026399162
195	0x3d3e1346	0.0464051
196	0x3cb72681	0.022357227
197	0x3c17db67	0.009268618
198	0x3e631e38	0.22179496
199	0xbf174bb6	-0.590999
200	0x3e13af3d	0.14422317
201	0x3b69370d	0.0035585791
202	0xbf0f7e08	-0.56051683
203	0xbd220ce0	-0.03956306
204	0xbd003509	-0.03130058
205	0xbda14cf9	-0.078760095
206	0x3d68d027	0.056839135
207	0x3ddb48ff	0.10707282
208	0x3db26731	0.087110884
209	0xbd252841	-0.040321592
210	0x3ee4ee82	0.44713217
211	0x3d2ece96	0.042677484
212	0x3e109ed0	0.14123082
213	0x3e7935cc	0.24336928
214	0xbdde2e76	-0.108487055
215	0xbe2fa72e	-0.17153618
216	0xbe98f54e	-0.29874653
217	0xbde0575c	-0.109541625
218	0x3eec17a2	0.4611178
219	0x3ca89cac	0.02058252
220	0xbe8a8054	-0.27051032
221	0xbc13e9ff	-0.009027957
222	0xbe5e04ba	-0.2168149
223	0xbecd223e	-0.40065187
224	0xbdda8e8c	-0.1067172
225	0xbe37ec0a	-0.17961136
226	0xbd9dec29	-0.077110596
227	0xbe2704fa	-0.16310492
228	0xbe918b46	-0.2842657
229	0xbcfd38d4	-0.030910887
230	0x3d2e923a	0.04261992
231	0x3dc668cd	0.09687958
232	0x3e3094d0	0.17244267
233	0xbe55aed1	-0.20867468
234	0xbd812ef7	-0.06307786
235	0x3d99655b	0.07490035
236	0x3e5dae4e	0.21648523
237	0x3e69544e	0.22786066
238	0xbe69e7d1	-0.22842337
239	0xbf2b19cd	-0.66836244
240	0x3da45783	0.08024504
241	0xbe913343	-0.28359422
242	0x3d6498a6	0.05580964
243	0xbe388bc5	-0.18022068
244	0x3e9391ac	0.28822076
245	0xbde3edac	-0.11129317
246	0xbeb446d6	-0.35210294
247	0x3dce8a13	0.10084929
248	0xbc5851ca	-0.013203094
249	0xbdddb8ab	-0.10826238
250	0x3dde76c8	0.108624995
251	0x3c732194	0.014839549
252	0x3d53007e	0.05151414
253	0xbd8b7b20	-0.068105936
254	0x3c9452ff	0.018105982
255	0x3d6e2159	0.05813727

cnn.6.bias f4 [128]
0	0x3ec26a13	0.37971553
1	0xbc1e869a	-0.009675646
2	0x3a59568b	0.0008290789
3	0x3e9104b1	0.28323892
4	0x3e2b3edc	0.16723198
5	0x3d5ae4e2	0.053440936
6	0x3eb96244	0.36207783
7	0x3d1b9094	0.037979677
8	0x3cf07715	0.029353658
9	0xbdbfd5f1	-0.09366978
10	0x3e971469	0.2950776
11	0xbb0a8b9d	-0.0021140345
12	0x3e7e0ca2	0.24809507
13	0xbd643110	-0.055710852
14	0xbc773536	-0.01508837
15	0xbdb548f5	-0.08851806
16	0x3db2c590	0.08729088
17	0x3e367d9d	0.17821355
18	0x3e367928	0.17819655
19	0x3e2d1cdf	0.16905545
20	0xbd9a41db	-0.07532092
21	0xbe008ad0	-0.12552953
22	0xbdbd88ac	-0.09254584
23	0x3e082e88	0.13299
24	0x3d316f9f	0.04331934
25	0xbddfaa2b	-0.10921129
26	0x3cab0194	0.020874776
27	0xbd264120	-0.04058945
28	0x3e5337e3	0.20626788
29	0x3d9dd5e3	0.07706811
30	0x3e1d757f	0.15376852
31	0xbe1f8eac	-0.15581769
32	0x3e42ebc4	0.1903525
33	0x3e475a7a	0.19468108
34	0x3f0699b2	0.5257827
35	0xbd2d71d1	-0.042344872
36	0xbc72e804	-0.014825825
37	0xbd92de3f	-0.07171296
38	0x3d79b5c8	0.060964376
39	0x3b47b484	0.0030472586
40	0xbd384d52	-0.044995613
41	0x3deaef12	0.1147138
42	0xbd28997d	-0.041162003
43	0xbd9f4431	-0.07776678
44	0x3e375f08	0.17907345
45	0xbcf14f07	-0.029456628
46	0x3e381453	0.17976503
47	0xbe860a54	-0.26179755
48	0x3cbb261f	0.022845326
49	0x3e75ee9f	0.24016808
50	0xbd384a5d	-0.044992793
51	0xbbdc4e55	-0.006723205
52	0xbe84b641	-0.259203
53	0x3ccf88cd	0.025333786
54	0x3e4a7b59	0.19773616
55	0xbd86dc64	-0.06585005
56	0xbd4199dd	-0.047265876
57	0xbd41522b	-0.047197502
58	0xb937a37d	-0.00017513144
59	0x3ea860c9	0.3288634
60	0x3e383130	0.17987514
61	0x3da6f265	0.08151702
62	0xbd6a7c98	-0.057247728
63	0xbde51abb	-0.11186739
64	0xbe032d32	-0.1281021
65	0x3ebb736f	0.36611506
66	0xbd69d732	-0.057089992
67	0x3de5c8ef	0.11219966
68	0x3d94f8e4	0.072740346
69	0x3e91fc59	0.28512838
70	0xbdb62f44	-0.08895734
71	0xbd9d099f	-0.07667851
72	0x3dbe5977	0.09294408
73	0x3e7e8b60	0.24857855
74	0x3e9205f0	0.28520155
75	0xbd9cd63b	-0.07658049
76	0xbd2a320a	-0.041551627
77	0xbd844d79	-0.06460089
78	0x3e8247bf	0.25445363
79	0xbd3584cc	-0.044316098
80	0xbd16e8e2	-0.036843188
81	0xbe05e87a	-0.13076964
82	0x3c3a7ebb	0.011382754
83	0x3e50a92f	0.20377038
84	0x3ea3993b	0.31952843
85	0x3d4978e2	0.04918755
86	0xbddbeddb	-0.10738727
87	0x3d745555	0.05965169
88	0xbce6f564	-0.028193183
89	0xbbce4d04	-0.006295802
90	0xbe864230	-0.26222372
91	0x3d5a8261	0.053346995
92	0xbdff8a77	-0.12477582
93	0xbd8009f3	-0.06251898
94	0x3ebd67a8	0.36993146
95	0xbd70cc60	-0.058788657
96	0xbd4c7591	-0.049916808
97	0x3eb519e6	0.3537132
98	0x3ecf9cc9	0.40549305
99	0xbc8b6dc1	-0.017020108
100	0x3d2bbb5a	0.04192672
101	0xbdb454e6	-0.088052556
102	0xbd92fb5c	-0.07176849
103	0xbe1e2050	-0.15442014
104	0x3ea3fd08	0.32028985
105	0xbd6561f1	-0.056001607
106	0x3d955456	0.072914764
107	0xbcaa9e92	-0.020827565
108	0x3de93f40	0.11389017
109	0xbdf63533	-0.12021866
110	0x3d031939	0.032006476
111	0xbded7295	-0.115941204
112	0x3d82b5db	0.063823424
113	0xbca70889	-0.020389812
114	0xbd1ed020	-0.038772702
115	0x3e08a152	0.13342789
116	0x3e6b853a	0.2300004
117	0x3c058bf7	0.008151046
118	0x3e3e645d	0.18592973
119	0x3d05c4a6	0.03265824
120	0xbdce5996	-0.10075681
121	0xbe2374e5	-0.1596256
122	0xbe2076be	-0.15670297
123	0x3e7405a3	0.23830275
124	0x3e93620d	0.28785744
125	0xbac7f684	-0.0015255962
126	0x3dd17b9f	0.10228657
127	0x3e1b89bd	0.15189262

fc.bias f4 [37]
0	0xbe00bd11	-0.12572123
1	0x3d9d02ed	0.07666574
2	0x3dca65c9	0.09882695
3	0xbdbc716f	-0.09201323
4	0x3d523ea0	0.051329255
5	0xbde11592	-0.10990442
6	0x3e2a7fb1	0.16650273
7	0xbe2d44ef	-0.16920827
8	0xbcf35a7c	-0.029706232
9	0x3e925afb	0.28585038
10	0x3e0b169f	0.13582848
11	0x39b1d151	0.00033916024
12	0x3e85301f	0.26013276
13	0xbe82e2ff	-0.2556381
14	0xbf35abbc	-0.7096517
15	0x3e093e15	0.13402589
16	0xbf37539c	-0.7161195
17	0xbf3e08a0	-0.7423191
18	0x3e0ede9a	0.13952103
19	0xbf379f58	-0.71727514
20	0xbf41f4be	-0.7576407
21	0xbd5d8338	-0.054080218
22	0xbf3d2661	-0.73886687
23	0x3d603b3c	0.05474399
24	0xbf3bfb57	-0.7343039
25	0xbe8970ba	-0.26843816
26	0xbdbec818	-0.093155086
27	0xbf443440	-0.7664223
28	0xbf35bf12	-0.70994675
29	0xbf3f7be4	-0.7479842
30	0xbc365446	-0.011128491
31	0xbf3cf56f	-0.73812
32	0xbf4308db	-0.7618539
33	0xbf3a0042	-0.72656643
34	0x3b9a8780	0.00471586
35	0xbdd620de	-0.10455488
36	0xbf379bef	-0.7172231

onnx::MatMul_42 f4 [1024, 37]
0	0xba886c7a	-0.0010408305
1	0xbdaf63b9	-0.085639425
2	0x3e4c82a2	0.19971707
3	0xbc8d7853	-0.01726929
4	0xbe38ac99	-0.18034591
5	0xbe84049e	-0.25784773
6	0xbd5468f6	-0.05185791
7	0xbe726b42	-0.23673728
8	0x3e893371	0.2679706
9	0xbe36064f	-0.17775844
10	0xbddfb76a	-0.10923655
11	0xbe527ac5	-0.20554645
12	0xbc8caa3f	-0.017171023
13	0xbde14ce8	-0.11000997
14	0xbe175c0b	-0.14781205
15	0xbd30acb0	-0.043133438
16	0xbe3a79b7	-0.18210493
17	0xbe3262a6	-0.17420444
18	0x3e712a61	0.23551323
19	0xbe40d07b	-0.18829529
20	0xbe35bfdb	-0.17748968
21	0xbdbbf438	-0.091774404
22	0xbe3aa6e5	-0.18227728
23	0xbe0a9ebe	-0.13537118
24	0xbe4314c1	-0.19050886
25	0xbde398b1	-0.11113108
26	0xbce4e698	-0.027941987
27	0xbe47350d	-0.19453831
28	0xbe1bc4cf	-0.15211795
29	0xbe1db491	-0.15400912
30	0x3e0967d9	0.13418521
31	0xbe434820	-0.19070482
32	0xbe226f4f	-0.15862773
33	0xbe0bf3e9	-0.13667263
34	0xbe76e24f	-0.24109767
35	0x3e53d632	0.20687178
36	0xbe16a0ef	-0.14709829
37	0xbd99fa98	-0.075185
38	0xbd965655	-0.07340685
39	0xbe5cb07c	-0.21551698
40	0x3b559ec1	0.0032595845
41	0x3d9befcb	0.07614096
42	0xbf143200	-0.57888794
43	0x3d0cf9e7	0.034418013
44	0xbf3db1e4	-0.74099565
45	0x3e51a451	0.20472838
46	0x3dcc797a	0.09984107
47	0x3eac7b06	0.3368761
48	0xbd6a66fb	-0.057227116
49	0x3d838f10	0.064237714
50	0xbd274bd7	-0.04084381
51	0xbe978da2	-0.29600245
52	0x3e20e14a	0.15710941
53	0xbeafecd8	-0.34360385
54	0xbea8a6e2	-0.3293982
55	0xbcc12089	-0.023575084
56	0xbeb1a08e	-0.34692806
57	0xbe9b588e	-0.30341
58	0xbc03a3eb	-0.008034687
59	0xbeaa5a3f	-0.33271977
60	0x3d810948	0.063005984
61	0xbea9348e	-0.3304791
62	0xbd8a6e85	-0.06759361
63	0x3e2e434a	0.17017856
64	0xbea33bdc	-0.31881607
65	0xbeacf49d	-0.33780375
66	0xbea60f51	-0.3243356
67	0x3c084408	0.008317001
68	0xbea3b037	-0.3197038
69	0xbeaafcf9	-0.33396128
70	0xbeac7bcf	-0.33688208
71	0xbd78880c	-0.06067662
72	0x3e531b19	0.20615806
73	0xbea075f4	-0.3133999
74	0xbc9fb047	-0.019493235
75	0x3e403902	0.18771747
76	0xbee6772d	-0.450128
77	0x3e92ceb8	0.2867334
78	0x3c93a02f	0.018020717
79	0xbf94300b	-1.1577162
80	0xbe1b4cea	-0.15166059
81	0xbf46472f	-0.7745237
82	0x3e9ba82b	0.3040174
83	0x3e77737a	0.24165145
84	0x3e99f31d	0.30068293
85	0xbe4f3003	-0.20233159
86	0x3e0069ad	0.12540312
87	0xbdd33782	-0.10313322
88	0xbeaee0f9	-0.34156016
89	0xbd985517	-0.074381046
90	0xbead2ede	-0.3382482
91	0xbea4658d	-0.32108727
92	0x3e4a75e9	0.19771542
93	0xbeba7ff8	-0.36425757
94	0xbead11dd	-0.3380269
95	0xbe8f6ac7	-0.28011152
96	0xbeb4702f	-0.3524184
97	0x3ed2a2a8	0.41139722
98	0xbea348b8	-0.31891418
99	0xbe1e2a18	-0.15445745
100	0x3d0574a4	0.03258194
101	0xbeae57b9	-0.34051302
102	0xbea9e3fb	-0.33181748
103	0xbea26d22	-0.31723887
104	0x3df90d2d	0.12160716
105	0xbeb27a13	-0.3485876
106	0xbea9644c	-0.33084333
107	0xbeb0307a	-0.34411985
108	0x3e1ce317	0.15321003
109	0x3ead3957	0.3383281
110	0xbeb283d0	-0.3486619
111	0xbe32f203	-0.17475133
112	0xbda3517c	-0.07974526
113	0xbe5692f6	-0.20954499
114	0x3dcb4b1b	0.099264346
115	0xbdacb837	-0.08433574
116	0xbe79a48d	-0.24379177
117	0x3dff203b	0.12457319
118	0x3df6573c	0.120283574
119	0x3ddf41e9	0.10901243
120	0x3d925ff4	0.07147208
121	0x3e95e4d4	0.29276145
122	0xbd8efc71	-0.06981743
123	0x3d4d2010	0.050079405
124	0x3dfc971b	0.123335086
125	0xbeadd700	-0.33953094
126	0xbe87772e	-0.26458114
127	0xbea6b241	-0.32557872
128	0xbeb98fc1	-0.36242488
129	0x3ccb102c	0.024787985
130	0xbea82b89	-0.32845715
131	0xbeb5f22c	-0.35536325
132	0xbeb079d9	-0.34467962
133	0xbeaa74c5	-0.33292213
134	0xbce01174	-0.027352072
135	0xbea73db2	-0.32664257
136	0xbd415ecf	-0.047209557
137	0x3e6ab964	0.22922283
138	0xbe9bcca9	-0.3042958
139	0xbe9ddc01	-0.30831912
140	0xbeb1e235	-0.34742895
141	0x3dc93073	0.09823694
142	0xbea0ff7e	-0.31444925
143	0xbeaa416a	-0.33253032
144	0xbeaacd8c	-0.33359945
145	0x3e587b81	0.21140863
146	0x3e896a30	0.26838827
147	0xbeaa3de5	-0.33250347
148	0xbdf9a869	-0.12190325
149	0xbe077056	-0.13226447
150	0xbeeda12d	-0.4641203
151	0xbe9e0711	-0.30864766
152	0x3efe8377	0.49709675
153	0x3d933933	0.07188644
154	0x3e90e2f3	0.2829815
155	0x3e517f0b	0.2045862
156	0xbf9a5bdd	-1.2059284
157	0x3e3fd1d0	0.18732381
158	0x3aba0e4d	0.0014194936
159	0x3e07180e	0.1319277
160	0x3d845ccd	0.06463013
161	0xbe411100	-0.18854141
162	0xbeb49eff	-0.35277554
163	0xbbb21747	-0.005434904
164	0xbeba7c6f	-0.3642306
165	0xbeafcb05	-0.3433458
166	0x3ac93098	0.0015349565
167	0xbea53ac5	-0.322714
168	0xbea875a4	-0.32902253
169	0xbda4bdd4	-0.08044019
170	0xbeb2bdae	-0.3491034
171	0x3dbb5528	0.09147102
172	0xbeb05d85	-0.3444635
173	0xbded4451	-0.11585296
174	0xbdc7dbff	-0.09758758
175	0xbeb1f169	-0.34754494
176	0xbeb3aba3	-0.35091886
177	0xbeabf116	-0.3358237
178	0xbe97ae0f	-0.29624984
179	0xbeb231e5	-0.34803692
180	0xbead3a61	-0.33833602
181	0xbeb723f1	-0.3576961
182	0xbe0b8891	-0.13626315
183	0xbe041059	-0.12896861
184	0xbeb66152	-0.35621125
185	0xbe20afea	-0.15692106
186	0x3e936107	0.28784963
187	0x3e4adc76	0.19810662
188	0x3e90e88c	0.2830242
189	0x3e908c63	0.28232107
190	0x3d011dbc	0.031522498
191	0x3db2ff82	0.087401405
192	0x3d8ce089	0.06878764
193	0xbf647daa	-0.8925425
194	0x3ddcdc5c	0.10784218
195	0xbf01eed3	-0.5075504
196	0xbd1b3725	-0.037894387
197	0x3e20f0f6	0.1571692
198	0xbe1c0511	-0.15236308
199	0xbeb319f7	-0.34980747
200	0x3d797930	0.06090659
201	0xbebcaca5	-0.36850467
202	0xbeb27d23	-0.34861097
203	0xbebb4508	-0.36576104
204	0xbeb549e8	-0.35407948
205	0xbeaaa40a	-0.33328277
206	0x3ef83ddb	0.48484692
207	0xbeaff2d4	-0.3436495
208	0xbf04bb09	-0.51847893
209	0xbeb55f7e	-0.35424417
210	0xbe2737d4	-0.1632989
211	0xbf65cf94	-0.89769864
212	0xbebb95f4	-0.36637843
213	0xbebe4c6d	-0.37167683
214	0xbeab121b	-0.3341225
215	0xbf3811ea	-0.71902335
216	0xbeb644b6	-0.35599297
217	0xbebece3d	-0.37266722
218	0xbea86060	-0.32886028
219	0xbac99a76	-0.0015381116
220	0xbf4da7ea	-0.8033434
221	0xbeb28ff0	-0.3487544
222	0xbdfedfd7	-0.12445038
223	0x3ea0345d	0.3128995
224	0x3d6bfc9d	0.057613958
225	0x3d8ce4fa	0.06879611
226	0xbd73bd62	-0.05950678
227	0xbe40c9c4	-0.18826967
228	0xbddc8d7f	-0.10769176
229	0xbdad52a2	-0.084630266
230	0xbe2001c4	-0.15625674
231	0x3dbacb59	0.09120817
232	0xbdb0e720	-0.086378336
233	0xbc5e1019	-0.013553643
234	0x3de6993a	0.112596944
235	0xbd0aa8eb	-0.0338525
236	0xbef1e950	-0.47248316
237	0x3e961590	0.29313326
238	0xbed7cac7	-0.42146894
239	0xbed88cdb	-0.42294964
240	0xbd8deca0	-0.06929898
241	0xbed50d20	-0.41611576
242	0xbedc0da5	-0.4297916
243	0x3e0830e7	0.13299905
244	0xbedd36d9	-0.43205908
245	0xbe92a83f	-0.28643987
246	0xbee2c93c	-0.44294155
247	0x3e1b96b0	0.15194201
248	0xbf50e852	-0.8160449
249	0xbed9eb8f	-0.4256253
250	0xbeed9d40	-0.46409035
251	0xbeea9cfe	-0.458229
252	0xbe88b7c7	-0.2670271
253	0xbee0ff54	-0.439448
254	0xbeda29c9	-0.42610005
255	0xbedbd0d3	-0.42932758
